…
max_pooling3d (MaxPooling3D)    (None, 4, 35, 35, 20 0           conv_lst_m2d[0][0]               
__________________________________________________________________________________________________
conv_lst_m2d_1 (ConvLSTM2D)     (None, 4, 35, 35, 10 10840       max_pooling3d[0][0]              
__________________________________________________________________________________________________
max_pooling3d_1 (MaxPooling3D)  (None, 4, 12, 12, 10 0           conv_lst_m2d_1[0][0]             
__________________________________________________________________________________________________
conv_lst_m2d_2 (ConvLSTM2D)     (None, 4, 12, 12, 5) 2720        max_pooling3d_1[0][0]            
__________________________________________________________________________________________________
max_pooling3d_2 (MaxPooling3D)  (None, 4, 6, 6, 5)   0           conv_lst_m2d_2[0][0]             
__________________________________________________________________________________________________
time_distributed (TimeDistribut (None, 4, 180)       0           max_pooling3d_2[0][0]            
__________________________________________________________________________________________________
time_distributed_1 (TimeDistrib (None, 4, 512)       92672       time_distributed[0][0]           
__________________________________________________________________________________________________
input_2 (InputLayer)            [(None, 4, 1)]       0                                            
__________________________________________________________________________________________________
time_distributed_2 (TimeDistrib (None, 4, 512)       0           time_distributed_1[0][0]         
__________________________________________________________________________________________________
lstm (LSTM)                     (None, 4, 32)        4352        input_2[0][0]                    
__________________________________________________________________________________________________
time_distributed_3 (TimeDistrib (None, 4, 64)        32832       time_distributed_2[0][0]         
__________________________________________________________________________________________________
lstm_1 (LSTM)                   (None, 4, 32)        8320        lstm[0][0]                       
__________________________________________________________________________________________________
flatten_1 (Flatten)             (None, 256)          0           time_distributed_3[0][0]         
__________________________________________________________________________________________________
flatten_2 (Flatten)             (None, 128)          0           lstm_1[0][0]                     
__________________________________________________________________________________________________
dense_2 (Dense)                 (None, 128)          32896       flatten_1[0][0]                  
__________________________________________________________________________________________________
dense_3 (Dense)                 (None, 128)          16512       flatten_2[0][0]                  
__________________________________________________________________________________________________
average (Average)               (None, 128)          0           dense_2[0][0]                    
                                                                 dense_3[0][0]                    
__________________________________________________________________________________________________
batch_normalization (BatchNorma (None, 128)          512         average[0][0]                    
__________________________________________________________________________________________________
dense_4 (Dense)                 (None, 64)           8256        batch_normalization[0][0]        
__________________________________________________________________________________________________
dense_5 (Dense)                 (None, 1)            65          dense_4[0][0]                    
==================================================================================================
Total params: 230,937
Trainable params: 230,681
Non-trainable params: 256
__________________________________________________________________________________________________
None
Epoch 1/20
157/159 [============================>.] - ETA: 0s - loss: 0.0464WARNING:tensorflow:multiprocessing can interact badly with TensorFlow, causing nondeterministic deadlocks. For high performance data pipelines tf.data is recommended.
…
