…
performance data pipelines tf.data is recommended.
WARNING:tensorflow:multiprocessing can interact badly with TensorFlow, causing nondeterministic deadlocks. For high performance data pipelines tf.data is recommended.
Model: "model"
_________________________________________________________________
Layer (type)                 Output Shape              Param #   
=================================================================
input_2 (InputLayer)         [(None, 4, 1)]            0         
_________________________________________________________________
lstm (LSTM)                  (None, 4, 32)             4352      
_________________________________________________________________
lstm_1 (LSTM)                (None, 4, 32)             8320      
_________________________________________________________________
flatten_2 (Flatten)          (None, 128)               0         
_________________________________________________________________
dense_3 (Dense)              (None, 128)               16512     
_________________________________________________________________
batch_normalization (BatchNo (None, 128)               512       
_________________________________________________________________
dense_4 (Dense)              (None, 64)                8256      
_________________________________________________________________
dense_5 (Dense)              (None, 1)                 65        
=================================================================
Total params: 38,017
Trainable params: 37,761
Non-trainable params: 256
_________________________________________________________________
None
Epoch 1/20
  3/159 [..............................] - ETA: 21s - loss: 0.1313WARNING:tensorflow:Callback method `on_train_batch_end` is slow compared to the batch time (batch time: 0.0111s vs `on_train_batch_end` time: 0.0398s). Check your callbacks.
…
