…
rformance data pipelines tf.data is recommended.
WARNING:tensorflow:multiprocessing can interact badly with TensorFlow, causing nondeterministic deadlocks. For high performance data pipelines tf.data is recommended.
Model: "model_4"
_________________________________________________________________
Layer (type)                 Output Shape              Param #   
=================================================================
input_10 (InputLayer)        [(None, 4, 1)]            0         
_________________________________________________________________
lstm_8 (LSTM)                (None, 4, 32)             4352      
_________________________________________________________________
lstm_9 (LSTM)                (None, 4, 32)             8320      
_________________________________________________________________
flatten_14 (Flatten)         (None, 128)               0         
_________________________________________________________________
dense_27 (Dense)             (None, 128)               16512     
_________________________________________________________________
batch_normalization_4 (Batch (None, 128)               512       
_________________________________________________________________
dense_28 (Dense)             (None, 64)                8256      
_________________________________________________________________
dense_29 (Dense)             (None, 1)                 65        
=================================================================
Total params: 38,017
Trainable params: 37,761
Non-trainable params: 256
_________________________________________________________________
None
Epoch 1/20
  6/159 [>.............................] - ETA: 23s - loss: 0.0853WARNING:tensorflow:Callback method `on_train_batch_end` is slow compared to the batch time (batch time: 0.0192s vs `on_train_batch_end` time: 0.1079s). Check your callbacks.
…
